---
import BaseLayout from "../layouts/BaseLayout.astro";

const examples = [
  {
    label: "schema.sixpack",
    title: "Schema first",
    body: "Define the data once. Tables, fields, and lookups stay short enough to read.",
    code: `<span class="c-key">schema</span><span class="c-punc">!</span> <span class="c-punc">{</span>
  <span class="c-table">notebooks</span> <span class="c-punc">{</span>
    <span class="c-field">id</span> <span class="c-type">id</span>
    <span class="c-field">title</span> <span class="c-type">text</span>
    <span class="c-field">created_at</span> <span class="c-type">int</span>
  <span class="c-punc">}</span>

  <span class="c-table">notes</span> <span class="c-punc">{</span>
    <span class="c-field">id</span> <span class="c-type">id</span>
    <span class="c-field">notebook_id</span> <span class="c-type">id</span>
    <span class="c-field">title</span> <span class="c-type">text</span>
    <span class="c-field">body</span> <span class="c-type">text</span>
    <span class="c-field">updated_at</span> <span class="c-type">int</span>

    <span class="c-key">lookup</span> <span class="c-field">notebook_id</span> <span class="c-type">many</span>
    <span class="c-key">lookup</span> <span class="c-field">updated_at</span> <span class="c-type">many</span>
  <span class="c-punc">}</span>
<span class="c-punc">}</span>`,
  },
  {
    label: "generated Rust",
    title: "Typed app calls",
    body: "Reads and writes become normal Rust calls instead of strings passed into a database.",
    code: `<span class="c-key">let</span> <span class="c-ident">db</span> <span class="c-op">=</span> <span class="c-fn">Database</span><span class="c-punc">::</span><span class="c-fn">open_local_with_schema</span><span class="c-punc">(</span>
  <span class="c-str">"./data"</span><span class="c-punc">,</span>
  <span class="c-str">"notes-db"</span><span class="c-punc">,</span>
  <span class="c-fn">database_schema</span><span class="c-punc">()</span>
<span class="c-punc">);</span>

<span class="c-ident">db</span><span class="c-punc">.</span><span class="c-fn">write</span><span class="c-punc">(</span><span class="c-table">notes</span><span class="c-punc">::</span><span class="c-fn">add</span><span class="c-punc">(</span><span class="c-table">notes</span><span class="c-punc">::</span><span class="c-type">Row</span> <span class="c-punc">{</span>
  <span class="c-field">id</span><span class="c-punc">:</span> <span class="c-str">"note-1"</span><span class="c-punc">.</span><span class="c-fn">to_owned</span><span class="c-punc">(),</span>
  <span class="c-field">notebook_id</span><span class="c-punc">:</span> <span class="c-str">"inbox"</span><span class="c-punc">.</span><span class="c-fn">to_owned</span><span class="c-punc">(),</span>
  <span class="c-field">title</span><span class="c-punc">:</span> <span class="c-str">"Ship the map"</span><span class="c-punc">.</span><span class="c-fn">to_owned</span><span class="c-punc">(),</span>
  <span class="c-field">body</span><span class="c-punc">:</span> <span class="c-str">"Readable rows, private speed."</span><span class="c-punc">.</span><span class="c-fn">to_owned</span><span class="c-punc">(),</span>
  <span class="c-field">updated_at</span><span class="c-punc">:</span> <span class="c-num">1_700_100_000</span><span class="c-punc">,</span>
<span class="c-punc">}))?;</span>

<span class="c-key">let</span> <span class="c-ident">inbox</span> <span class="c-op">=</span> <span class="c-ident">db</span><span class="c-punc">.</span><span class="c-fn">get</span><span class="c-punc">(</span><span class="c-table">notes</span><span class="c-punc">::</span><span class="c-ident">by</span><span class="c-punc">::</span><span class="c-fn">notebook_id</span><span class="c-punc">(</span><span class="c-str">"inbox"</span><span class="c-punc">))?;</span>`,
  },
  {
    label: "tables/notes/zzz.6",
    title: "Files you can inspect",
    body: "Writes leave behind row files you can open, diff, copy, and recover from.",
    code: `<span class="c-dim"># actual note rows</span>
<span class="c-key">R</span> <span class="c-num">1002</span> <span class="c-str">note-1</span> <span class="c-str">inbox</span> <span class="c-str">First note</span> <span class="c-str">Draft the launch page</span> <span class="c-num">1700100000</span>
<span class="c-key">R</span> <span class="c-num">1003</span> <span class="c-str">note-1</span> <span class="c-str">inbox</span> <span class="c-str">Ship the map</span> <span class="c-str">Readable rows, private speed.</span> <span class="c-num">1700100038</span>
<span class="c-key">D</span> <span class="c-num">1004</span> <span class="c-str">scratch-note</span>`,
  },
];

const metrics = [
  { op: "coordinated hot read", value: "~32 µs", detail: "one id read" },
  { op: "durable message write", value: "~11–13 ms", detail: "one synced commit" },
  { op: "durable 10-row batch", value: "~12–13 ms", detail: "one synced commit" },
  { op: "multi-process profile", value: "2 processes", detail: "local filesystem" },
];

const features = [
  {
    n: "01",
    title: "Typed app code",
    body: "The schema creates the read and write calls. Your application does not build database strings.",
  },
  {
    n: "02",
    title: "Readable files first",
    body: "The real data stays in local files you can inspect. Speed files are extra and can be rebuilt.",
  },
  {
    n: "03",
    title: "Safe local coordination",
    body: "Two low-traffic local processes share locks, durable commits, and cache revisions by default.",
  },
];

const flow = [
  { tag: "schema", body: "describe tables and lookups" },
  { tag: "typed calls", body: "read and write without SQL strings" },
  { tag: "local files", body: "append rows you can inspect", focus: true },
  { tag: "safe commit", body: "sync data and publish a revision", focus: true },
  { tag: "fast cache", body: "serve ids, lookups, and counts" },
];

const layoutRows = [
  ["tables/<table>/*.6", "the readable data files", "implemented"],
  ["engine/*.6b", "generated speed files for reads", "current"],
  ["engine/workspace.lock", "coordinates local readers and writers", "current"],
  ["engine/revision", "invalidates stale process caches", "current"],
  ["engine/state.6pack", "one private rebuildable speed file", "target"],
];
---

<BaseLayout
  title="sixpack"
  description="A local-first table database layer for typed Rust applications."
>
  <div class="home">
    <div class="grain" aria-hidden="true"></div>

    <section class="hero">
      <div class="wrap">
        <span class="eyebrow"><span class="dot"></span>local data you can inspect</span>
        <h1 class="display">
          A local database<br />
          you can <span class="ital">open.</span>
        </h1>
        <div class="hero-grid">
          <p class="lead-lg">
            Build local apps without hiding data inside an opaque database file.
            sixpack keeps your data in a readable folder, gives Rust code typed
            calls, and keeps the speed layer rebuildable.
          </p>
          <div class="hero-side">
            <div class="actions">
              <a class="cta cta-primary" href="/docs">Read the docs &rarr;</a>
              <a class="cta cta-ghost" href="https://github.com/memoirlabs/sixpack">View source</a>
            </div>
            <p class="hero-note">v0.0.1 · safety-first local storage · no SQL strings</p>
          </div>
        </div>
      </div>
    </section>

    <section class="stats">
      <div class="wrap stat-grid">
        <div class="stat">
          <span class="stat-num">2</span>
          <span class="stat-label">low-traffic processes tested together</span>
        </div>
        <div class="stat">
          <span class="stat-num">Rust</span>
          <span class="stat-label">native embedded engine</span>
        </div>
        <div class="stat">
          <span class="stat-num">0</span>
          <span class="stat-label">SQL strings in your app code</span>
        </div>
      </div>
    </section>

    <section class="block">
      <div class="wrap">
        <p class="kicker">/ principles</p>
        <div class="features">
          {features.map((f) => (
            <article class="feature">
              <span class="feature-n">{f.n}</span>
              <h3>{f.title}</h3>
              <p>{f.body}</p>
            </article>
          ))}
        </div>
      </div>
    </section>

    <section class="block">
      <div class="wrap split">
        <div class="split-copy">
          <p class="kicker">/ storage flow</p>
          <h2 class="head-lg">From schema<br />to files you can open.</h2>
          <p class="muted">
            Every write follows the same simple path. The local row files are
            the source of truth; the fast read layer can be rebuilt without
            losing data.
          </p>
        </div>
        <div class="flow">
          {flow.map((n, i) => (
            <div class={`flow-node ${n.focus ? "is-focus" : ""}`}>
              <span class="flow-i">{String(i + 1).padStart(2, "0")}</span>
              <div>
                <strong>{n.tag}</strong>
                <span>{n.body}</span>
              </div>
            </div>
          ))}
        </div>
      </div>
    </section>

    <section class="block">
      <div class="wrap split">
        <div class="split-copy">
          <p class="kicker">/ disk shape</p>
          <h2 class="head-lg">A folder database,<br />not a black box.</h2>
          <p class="muted">
            The public shape stays obvious: table folders hold the readable
            data. Private speed files are generated by the runtime and can be
            rebuilt from the data folder.
          </p>
        </div>
        <div class="layout-table">
          {layoutRows.map(([path, body, status]) => (
            <div class={`layout-row layout-${status}`}>
              <span>{status}</span>
              <strong>{path}</strong>
              <p>{body}</p>
            </div>
          ))}
        </div>
      </div>
    </section>

    <section class="block examples-block">
      <div class="wrap">
        <div class="examples-head">
          <div>
            <p class="kicker">/ examples</p>
            <h2 class="head-lg">The syntax should sell it.</h2>
          </div>
          <p class="muted">
            A schema that reads clean, app calls that stay typed, and files on
            disk that still make sense when you open the folder.
          </p>
        </div>
        <div class="example-grid">
          {examples.map((example, index) => (
            <article class={`example-card ${index === 0 ? "example-primary" : ""}`}>
              <div class="example-copy">
                <span class="example-label">{example.label}</span>
                <h3>{example.title}</h3>
                <p>{example.body}</p>
              </div>
              <div class="code-shell">
                <div class="code-bar" aria-hidden="true">
                  <span></span><span></span><span></span>
                  <em>{example.label}</em>
                </div>
                <pre class="code-body"><code set:html={example.code}></code></pre>
              </div>
            </article>
          ))}
        </div>
        <div class="data-contrast">
          <div class="contrast-copy">
            <p class="kicker">/ same data, different file</p>
            <h3><code>.sqlite</code> vs <code>.6</code>, at a glance.</h3>
            <p>
              The app still gets typed calls. On disk, the difference is simple:
              SQLite is opaque bytes; sixpack keeps row history readable.
            </p>
          </div>
          <div class="contrast-grid">
            <div class="contrast-panel contrast-binary">
              <span>.sqlite</span>
              <code>01010011 01010001 01001100 01101001<br />00000000 11101010 01011100 10010001<br />10110100 00001010 01100011 00011100</code>
            </div>
            <div class="contrast-panel contrast-readable">
              <span>sixpack .6 database file</span>
              <code>R 1003 note-1 inbox Ship the map<br />R 1004 note-1 inbox Final copy<br />D 1005 scratch-note</code>
            </div>
          </div>
        </div>
        <div class="bench-under">
          <div class="bench-copy">
            <p class="kicker">/ safety-first benchmark snapshot</p>
            <h3>Fast enough to stay safe.</h3>
            <p>
              10,000 rows preloaded on the benchmark filesystem. Writes include
              workspace coordination, canonical data sync, and revision publication.
            </p>
          </div>
          <div class="bench">
            {metrics.map((m) => (
              <div class="bench-row">
                <span class="bench-op">{m.op}</span>
                <span class="pill pill-win">{m.value}</span>
                <span class="pill pill-neutral">{m.detail}</span>
              </div>
            ))}
          </div>
        </div>
      </div>
    </section>
  </div>
</BaseLayout>

<style>
  .home {
    --accent: #b6f23d;
    --accent-bright: #cdff63;
    --accent-soft: rgba(182, 242, 61, 0.13);
    --accent-line: rgba(182, 242, 61, 0.4);
    position: relative;
    font-family: "Space Grotesk", Inter, ui-sans-serif, system-ui, sans-serif;
  }

  /* visible film grain: no blend mode, light specks over black */
  .grain {
    position: fixed;
    inset: 0;
    z-index: 0;
    pointer-events: none;
    opacity: 0.06;
    background-image: url("data:image/svg+xml,%3Csvg xmlns='http://www.w3.org/2000/svg' width='200' height='200'%3E%3Cfilter id='n'%3E%3CfeTurbulence type='fractalNoise' baseFrequency='0.9' numOctaves='3' stitchTiles='stitch'/%3E%3C/filter%3E%3Crect width='100%25' height='100%25' filter='url(%23n)'/%3E%3C/svg%3E");
  }

  .wrap {
    position: relative;
    z-index: 1;
    width: min(1120px, calc(100% - 32px));
    margin: 0 auto;
  }

  /* ---------- hero ---------- */
  .hero {
    position: relative;
    display: block;
    grid-template-columns: none;
    gap: 0;
    align-items: initial;
    padding: clamp(44px, 7vw, 84px) 0 clamp(32px, 4vw, 52px);
  }

  .hero .wrap {
    display: flex;
    flex-direction: column;
    align-items: flex-start;
    width: min(1180px, calc(100% - 32px));
    padding-left: clamp(18px, 6vw, 104px);
    padding-right: clamp(18px, 4vw, 64px);
  }

  .eyebrow {
    position: relative;
    z-index: 1;
    display: inline-flex;
    align-items: center;
    gap: 9px;
    font-family: ui-monospace, SFMono-Regular, Menlo, Consolas, monospace;
    font-size: 13px;
    letter-spacing: 0.04em;
    text-transform: uppercase;
    color: var(--muted);
  }

  .dot {
    width: 8px;
    height: 8px;
    background: var(--accent-bright);
  }

  .display {
    position: relative;
    z-index: 1;
    margin: 18px 0 0;
    max-width: 1040px;
    font-family: "Space Grotesk", sans-serif;
    font-size: clamp(52px, 8.6vw, 108px);
    font-weight: 600;
    line-height: 0.9;
    letter-spacing: 0;
    text-align: left;
    color: var(--ink);
  }

  .ital {
    font-family: "Newsreader", Georgia, serif;
    font-style: italic;
    font-weight: 500;
    letter-spacing: 0;
    color: var(--accent-bright);
  }

  .hero-grid {
    position: relative;
    z-index: 1;
    display: grid;
    grid-template-columns: minmax(0, 620px) auto;
    justify-content: start;
    justify-items: start;
    gap: clamp(20px, 3vw, 30px);
    margin-top: clamp(24px, 3vw, 36px);
    text-align: left;
  }

  .lead-lg {
    max-width: 620px;
    color: var(--muted);
    font-size: clamp(17px, 1.7vw, 21px);
    line-height: 1.5;
  }

  .hero-side {
    display: flex;
    flex-direction: column;
    align-items: flex-start;
    justify-content: end;
    gap: 16px;
  }

  .actions {
    display: flex;
    flex-wrap: wrap;
    justify-content: flex-start;
    gap: 12px;
  }

  .cta {
    display: inline-flex;
    align-items: center;
    min-height: 50px;
    padding: 13px 22px;
    font-weight: 600;
    font-size: 15px;
    text-decoration: none;
    transition: transform 0.15s ease, background 0.15s ease, border-color 0.15s ease;
  }

  .cta-primary {
    background: var(--accent);
    color: #0d1a00;
    border: 1px solid var(--accent);
  }

  .cta-primary:hover {
    background: var(--accent-bright);
    border-color: var(--accent-bright);
  }

  .cta-ghost {
    background: transparent;
    border: 1px solid var(--line-strong);
    color: var(--ink);
  }

  .cta:hover {
    transform: translateY(-2px);
  }

  .cta-ghost:hover {
    border-color: var(--accent-line);
  }

  .hero-note {
    max-width: 560px;
    font-family: ui-monospace, SFMono-Regular, Menlo, Consolas, monospace;
    font-size: 12.5px;
    color: var(--muted-soft);
  }

  /* ---------- stats ---------- */
  .stats {
    position: relative;
    z-index: 1;
    border-top: 1px solid var(--line);
    border-bottom: 1px solid var(--line);
  }

  .stat-grid {
    display: grid;
    grid-template-columns: repeat(3, 1fr);
  }

  .stat {
    padding: clamp(28px, 4vw, 44px) 0;
    padding-right: 24px;
  }

  .stat + .stat {
    padding-left: clamp(24px, 4vw, 48px);
    border-left: 1px solid var(--line);
  }

  .stat-num {
    display: block;
    font-size: clamp(38px, 6vw, 68px);
    font-weight: 500;
    letter-spacing: 0;
    line-height: 1;
    color: var(--ink);
  }

  .pct {
    color: var(--accent-bright);
  }

  .stat-label {
    display: block;
    margin-top: 12px;
    font-size: 14px;
    color: var(--muted);
  }

  /* ---------- generic block ---------- */
  .block {
    position: relative;
    z-index: 1;
    padding: clamp(52px, 8vw, 100px) 0;
    border-bottom: 1px solid var(--line);
  }

  .kicker {
    margin: 0 0 28px;
    font-family: ui-monospace, SFMono-Regular, Menlo, Consolas, monospace;
    font-size: 13px;
    letter-spacing: 0.02em;
    color: var(--accent-bright);
  }

  .head-lg {
    font-family: "Space Grotesk", sans-serif;
    font-size: clamp(32px, 5.2vw, 60px);
    font-weight: 600;
    letter-spacing: 0;
    line-height: 0.98;
    color: var(--ink);
  }

  .muted {
    margin-top: 20px;
    max-width: 56ch;
    color: var(--muted);
    font-size: 16px;
    line-height: 1.55;
  }

  /* ---------- features ---------- */
  .features {
    display: grid;
    grid-template-columns: repeat(3, minmax(0, 1fr));
    border-top: 1px solid var(--line);
  }

  .feature {
    padding: 32px 28px 36px;
    border-bottom: 1px solid var(--line);
  }

  .feature + .feature {
    border-left: 1px solid var(--line);
  }

  .feature-n {
    font-family: ui-monospace, SFMono-Regular, Menlo, Consolas, monospace;
    font-size: 14px;
    color: var(--accent-bright);
  }

  .feature h3 {
    margin: 18px 0 12px;
    font-family: "Space Grotesk", sans-serif;
    font-size: 22px;
    font-weight: 600;
    letter-spacing: 0;
  }

  .feature p {
    margin: 0;
    color: var(--muted);
    font-size: 15px;
    line-height: 1.55;
  }

  /* ---------- split / flow ---------- */
  .split {
    display: grid;
    grid-template-columns: minmax(0, 0.9fr) minmax(0, 1fr);
    gap: clamp(32px, 6vw, 72px);
    align-items: start;
  }

  .flow {
    display: grid;
    gap: 8px;
  }

  .flow-node {
    display: flex;
    align-items: center;
    gap: 16px;
    padding: 16px 18px;
    border: 1px solid var(--line);
    background: rgba(255, 255, 255, 0.015);
    transition: border-color 0.15s ease;
  }

  .flow-i {
    font-family: ui-monospace, SFMono-Regular, Menlo, Consolas, monospace;
    font-size: 13px;
    color: var(--muted-soft);
  }

  .flow-node.is-focus {
    background: var(--accent-soft);
    border-color: var(--accent-line);
  }

  .flow-node.is-focus .flow-i {
    color: var(--accent-bright);
  }

  .flow-node strong {
    display: block;
    font-family: ui-monospace, SFMono-Regular, Menlo, Consolas, monospace;
    font-size: 14px;
    color: var(--ink);
  }

  .flow-node span {
    color: var(--muted);
    font-size: 13px;
  }

  /* ---------- layout table ---------- */
  .layout-table {
    display: grid;
    border-top: 1px solid var(--line);
  }

  .layout-row {
    display: grid;
    grid-template-columns: minmax(92px, 0.24fr) minmax(180px, 0.42fr) minmax(0, 1fr);
    gap: 16px;
    align-items: start;
    border-bottom: 1px solid var(--line);
    padding: 18px 0;
  }

  .layout-row span {
    width: fit-content;
    border: 1px solid var(--line);
    padding: 3px 8px;
    color: var(--muted-soft);
    font-family: ui-monospace, SFMono-Regular, Menlo, Consolas, monospace;
    font-size: 12px;
  }

  .layout-row strong {
    color: var(--accent-bright);
    font-family: ui-monospace, SFMono-Regular, Menlo, Consolas, monospace;
    font-size: 14px;
    overflow-wrap: anywhere;
  }

  .layout-row p {
    margin: 0;
    color: var(--muted);
    font-size: 14px;
  }

  .layout-target span {
    border-color: var(--accent-line);
    background: var(--accent-soft);
    color: var(--accent-bright);
  }

  /* ---------- bench ---------- */
  .bench-note {
    margin-bottom: 30px;
  }

  .bench-under {
    display: grid;
    grid-template-columns: minmax(240px, 0.42fr) minmax(0, 1fr);
    gap: clamp(20px, 4vw, 44px);
    align-items: start;
    margin-top: clamp(34px, 6vw, 66px);
    padding-top: clamp(28px, 4vw, 44px);
    border-top: 1px solid var(--line);
  }

  .bench-copy h3,
  .contrast-copy h3 {
    color: var(--ink);
    font-family: "Space Grotesk", sans-serif;
    font-size: clamp(24px, 3vw, 34px);
    font-weight: 600;
    letter-spacing: 0;
  }

  .bench-copy p,
  .contrast-copy p {
    margin-top: 12px;
    color: var(--muted);
    font-size: 14.5px;
    line-height: 1.55;
  }

  .bench {
    display: grid;
    gap: 8px;
  }

  .bench-row {
    display: grid;
    grid-template-columns: minmax(0, 1fr) auto auto;
    align-items: center;
    gap: 12px;
    padding: 14px 16px;
    border: 1px solid var(--line);
    background: rgba(255, 255, 255, 0.015);
  }

  .bench-op {
    font-size: 15.5px;
    color: var(--ink);
  }

  .pill {
    font-family: ui-monospace, SFMono-Regular, Menlo, Consolas, monospace;
    font-size: 13px;
    padding: 5px 11px;
    border: 1px solid transparent;
    white-space: nowrap;
  }

  .pill-win {
    background: var(--accent-soft);
    border-color: var(--accent-line);
    color: var(--accent-bright);
  }

  .pill-lose {
    background: rgba(255, 255, 255, 0.03);
    border-color: var(--line-strong);
    color: var(--muted);
  }

  .pill-neutral {
    background: transparent;
    border-color: var(--line);
    color: var(--muted-soft);
  }

  .data-contrast {
    display: grid;
    gap: clamp(18px, 3vw, 28px);
    margin-top: clamp(34px, 6vw, 66px);
    padding-top: clamp(28px, 4vw, 44px);
    border-top: 1px solid var(--line);
  }

  .contrast-grid {
    display: grid;
    grid-template-columns: repeat(2, minmax(0, 1fr));
    gap: 12px;
  }

  .contrast-panel {
    min-width: 0;
    border: 1px solid rgba(255, 255, 255, 0.09);
    background: #050505;
    padding: 14px;
  }

  .contrast-panel > span {
    display: block;
    margin-bottom: 12px;
    color: var(--muted-soft);
    font-family: ui-monospace, SFMono-Regular, Menlo, Consolas, monospace;
    font-size: 12px;
  }

  .contrast-panel code {
    display: block;
    overflow: hidden;
    color: rgba(250, 250, 250, 0.42);
    font-size: clamp(12px, 1.45vw, 13.5px);
    line-height: 1.7;
    white-space: pre-wrap;
    overflow-wrap: anywhere;
  }

  .contrast-readable {
    border-color: rgba(182, 242, 61, 0.32);
    background: rgba(182, 242, 61, 0.055);
  }

  .contrast-readable span,
  .contrast-readable code {
    color: var(--accent-bright);
  }

  .contrast-readable .row-comment {
    color: rgba(205, 255, 99, 0.56);
  }

  @media (max-width: 980px) {
    .contrast-grid {
      grid-template-columns: 1fr;
    }
  }

  /* ---------- examples / code ---------- */
  .examples-block {
    background: #000;
  }

  .examples-head {
    display: grid;
    grid-template-columns: minmax(0, 0.92fr) minmax(280px, 0.8fr);
    gap: clamp(24px, 5vw, 64px);
    align-items: end;
    margin-bottom: clamp(28px, 5vw, 56px);
  }

  .examples-head .muted {
    margin-top: 0;
  }

  .example-grid {
    display: grid;
    gap: clamp(34px, 5vw, 58px);
  }

  .example-card {
    min-width: 0;
  }

  .example-primary .code-shell {
    border-color: rgba(182, 242, 61, 0.32);
  }

  .example-copy {
    padding: 0 0 18px;
  }

  .example-label {
    display: inline-flex;
    width: fit-content;
    border: 1px solid rgba(182, 242, 61, 0.28);
    padding: 4px 8px;
    color: var(--accent-bright);
    background: rgba(182, 242, 61, 0.08);
    font-family: ui-monospace, SFMono-Regular, Menlo, Consolas, monospace;
    font-size: 12px;
    line-height: 1;
  }

  .example-copy h3 {
    margin-top: 14px;
    color: var(--ink);
    font-family: "Space Grotesk", sans-serif;
    font-size: clamp(24px, 3vw, 34px);
    font-weight: 600;
    letter-spacing: 0;
  }

  .example-copy p {
    max-width: 48ch;
    margin-top: 10px;
    color: var(--muted);
    font-size: 14.5px;
    line-height: 1.55;
  }

  .code-shell {
    margin: 0;
    border: 1px solid rgba(255, 255, 255, 0.09);
    background: #050505;
    overflow: hidden;
  }

  .code-bar {
    display: flex;
    align-items: center;
    gap: 7px;
    min-height: 42px;
    padding: 12px 16px;
    border-bottom: 1px solid rgba(255, 255, 255, 0.08);
  }

  .code-bar span {
    width: 9px;
    height: 9px;
    background: rgba(250, 250, 250, 0.18);
  }

  .example-primary .code-bar span:first-child {
    background: var(--accent-bright);
  }

  .code-bar em {
    margin-left: 8px;
    font-style: normal;
    font-family: ui-monospace, SFMono-Regular, Menlo, Consolas, monospace;
    font-size: 13px;
    color: var(--muted-soft);
  }

  .code-body {
    margin: 0;
    background: transparent;
    padding: clamp(18px, 2.4vw, 26px);
    color: #f7f7ef;
    font-size: 13.5px;
    line-height: 1.72;
    overflow-x: auto;
    tab-size: 2;
  }

  .example-primary .code-body {
    font-size: clamp(14px, 1.42vw, 16px);
  }

  .code-body code {
    display: block;
    min-width: max-content;
    font-family: ui-monospace, SFMono-Regular, Menlo, Consolas, monospace;
  }

  :global(.c-key),
  :global(.c-meta) {
    color: var(--accent-bright);
    font-weight: 760;
  }

  :global(.c-table) {
    color: #f8ffe6;
    font-weight: 760;
  }

  :global(.c-field),
  :global(.c-ident) {
    color: #e9e9e9;
  }

  :global(.c-type),
  :global(.c-fn) {
    color: #c9f96a;
  }

  :global(.c-str) {
    color: #a8d951;
  }

  :global(.c-num) {
    color: #ffffff;
  }

  :global(.c-punc),
  :global(.c-op),
  :global(.c-dim) {
    color: rgba(250, 250, 250, 0.46);
  }

  @media (max-width: 860px) {
    .hero-grid,
    .features,
    .stat-grid,
    .split,
    .examples-head,
    .example-grid,
    .data-contrast,
    .bench-under,
    .contrast-grid {
      grid-template-columns: 1fr;
    }

    .feature + .feature {
      border-left: none;
    }

    .stat + .stat {
      padding-left: 0;
      border-left: none;
      border-top: 1px solid var(--line);
    }

    .bench-row {
      grid-template-columns: 1fr;
      gap: 8px;
    }

    .layout-row {
      grid-template-columns: 1fr;
      gap: 8px;
    }
  }
</style>
